…
momentum=0.8, warmup_bias_lr=0.0, box=7.5, cls=0.5, dfl=1.5, pose=12.0, kobj=1.0, nbs=64, hsv_h=0.015, hsv_s=0.7, hsv_v=0.4, degrees=0.0, translate=0.1, scale=0.5, shear=0.0, perspective=0.0, flipud=0.0, fliplr=0.5, bgr=0.0, mosaic=1.0, mixup=0.1, copy_paste=0.1, copy_paste_mode=flip, auto_augment=randaugment, erasing=0.4, crop_fraction=1.0, cfg=None, tracker=botsort.yaml, save_dir=hasilAkhir\scenario_L50_student
Overriding model.yaml nc=80 with nc=47

                   from  n    params  module                                       arguments
  0                  -1  1       464  ultralytics.nn.modules.conv.Conv             [3, 16, 3, 2]
  1                  -1  1      2368  ultralytics.nn.modules.conv.Conv             [16, 32, 3, 2, 1, 2]
  2                  -1  1      6640  ultralytics.nn.modules.block.C3k2            [32, 64, 1, False, 0.25]
  3                  -1  1      9344  ultralytics.nn.modules.conv.Conv             [64, 64, 3, 2, 1, 4]
  4                  -1  1     26080  ultralytics.nn.modules.block.C3k2            [64, 128, 1, False, 0.25]
  5                  -1  1    147712  ultralytics.nn.modules.conv.Conv             [128, 128, 3, 2]
  6                  -1  2    174720  ultralytics.nn.modules.block.A2C2f           [128, 128, 2, True, 4]        
  7                  -1  1    295424  ultralytics.nn.modules.conv.Conv             [128, 256, 3, 2]
  8                  -1  2    677120  ultralytics.nn.modules.block.A2C2f           [256, 256, 2, True, 1]
  9                  -1  1         0  torch.nn.modules.upsampling.Upsample         [None, 2, 'nearest']
 10             [-1, 6]  1         0  ultralytics.nn.modules.conv.Concat           [1]
 11                  -1  1     86912  ultralytics.nn.modules.block.A2C2f           [384, 128, 1, False, -1]      
 12                  -1  1         0  torch.nn.modules.upsampling.Upsample         [None, 2, 'nearest']
 13             [-1, 4]  1         0  ultralytics.nn.modules.conv.Concat           [1]
 14                  -1  1     24000  ultralytics.nn.modules.block.A2C2f           [256, 64, 1, False, -1]
 15                  -1  1     36992  ultralytics.nn.modules.conv.Conv             [64, 64, 3, 2]
 16            [-1, 11]  1         0  ultralytics.nn.modules.conv.Concat           [1]
 17                  -1  1     74624  ultralytics.nn.modules.block.A2C2f           [192, 128, 1, False, -1]
 18                  -1  1    147712  ultralytics.nn.modules.conv.Conv             [128, 128, 3, 2]
 19             [-1, 8]  1         0  ultralytics.nn.modules.conv.Concat           [1]
 20                  -1  1    378880  ultralytics.nn.modules.block.C3k2            [384, 256, 1, True]
 21        [14, 17, 20]  1    439837  ultralytics.nn.modules.head.Detect           [47, [64, 128, 256]]
YOLOv12n summary: 497 layers, 2,528,829 parameters, 2,528,813 gradients, 6.0 GFLOPs